Using TensorFlow backend.
__________________________________________________________________________________________________
Layer (type)                    Output Shape         Param #     Connected to                     
==================================================================================================
input_1 (InputLayer)            (None, 128, 128, 3)  0                                            
__________________________________________________________________________________________________
conv2d_1 (Conv2D)               (None, 128, 128, 16) 448         input_1[0][0]                    
__________________________________________________________________________________________________
max_pooling2d_1 (MaxPooling2D)  (None, 64, 64, 16)   0           conv2d_1[0][0]                   
__________________________________________________________________________________________________
conv2d_2 (Conv2D)               (None, 64, 64, 32)   4640        max_pooling2d_1[0][0]            
__________________________________________________________________________________________________
max_pooling2d_2 (MaxPooling2D)  (None, 32, 32, 32)   0           conv2d_2[0][0]                   
__________________________________________________________________________________________________
conv2d_3 (Conv2D)               (None, 32, 32, 64)   18496       max_pooling2d_2[0][0]            
__________________________________________________________________________________________________
max_pooling2d_3 (MaxPooling2D)  (None, 16, 16, 64)   0           conv2d_3[0][0]                   
__________________________________________________________________________________________________
conv2d_4 (Conv2D)               (None, 16, 16, 128)  73856       max_pooling2d_3[0][0]            
__________________________________________________________________________________________________
max_pooling2d_4 (MaxPooling2D)  (None, 8, 8, 128)    0           conv2d_4[0][0]                   
__________________________________________________________________________________________________
conv2d_5 (Conv2D)               (None, 8, 8, 256)    295168      max_pooling2d_4[0][0]            
__________________________________________________________________________________________________
max_pooling2d_5 (MaxPooling2D)  (None, 4, 4, 256)    0           conv2d_5[0][0]                   
__________________________________________________________________________________________________
conv2d_6 (Conv2D)               (None, 4, 4, 256)    590080      max_pooling2d_5[0][0]            
__________________________________________________________________________________________________
up_sampling2d_1 (UpSampling2D)  (None, 8, 8, 256)    0           conv2d_6[0][0]                   
__________________________________________________________________________________________________
concatenate_1 (Concatenate)     (None, 8, 8, 512)    0           conv2d_5[0][0]                   
                                                                 up_sampling2d_1[0][0]            
__________________________________________________________________________________________________
conv2d_7 (Conv2D)               (None, 8, 8, 128)    589952      concatenate_1[0][0]              
__________________________________________________________________________________________________
up_sampling2d_2 (UpSampling2D)  (None, 16, 16, 128)  0           conv2d_7[0][0]                   
__________________________________________________________________________________________________
concatenate_2 (Concatenate)     (None, 16, 16, 256)  0           conv2d_4[0][0]                   
                                                                 up_sampling2d_2[0][0]            
__________________________________________________________________________________________________
conv2d_8 (Conv2D)               (None, 16, 16, 64)   147520      concatenate_2[0][0]              
__________________________________________________________________________________________________
up_sampling2d_3 (UpSampling2D)  (None, 32, 32, 64)   0           conv2d_8[0][0]                   
__________________________________________________________________________________________________
concatenate_3 (Concatenate)     (None, 32, 32, 128)  0           conv2d_3[0][0]                   
                                                                 up_sampling2d_3[0][0]            
__________________________________________________________________________________________________
conv2d_9 (Conv2D)               (None, 32, 32, 32)   36896       concatenate_3[0][0]              
__________________________________________________________________________________________________
up_sampling2d_4 (UpSampling2D)  (None, 64, 64, 32)   0           conv2d_9[0][0]                   
__________________________________________________________________________________________________
concatenate_4 (Concatenate)     (None, 64, 64, 64)   0           conv2d_2[0][0]                   
                                                                 up_sampling2d_4[0][0]            
__________________________________________________________________________________________________
conv2d_10 (Conv2D)              (None, 64, 64, 16)   9232        concatenate_4[0][0]              
__________________________________________________________________________________________________
up_sampling2d_5 (UpSampling2D)  (None, 128, 128, 16) 0           conv2d_10[0][0]                  
__________________________________________________________________________________________________
concatenate_5 (Concatenate)     (None, 128, 128, 32) 0           conv2d_1[0][0]                   
                                                                 up_sampling2d_5[0][0]            
__________________________________________________________________________________________________
conv2d_11 (Conv2D)              (None, 128, 128, 3)  867         concatenate_5[0][0]              
__________________________________________________________________________________________________
conv2d_12 (Conv2D)              (None, 128, 128, 3)  867         concatenate_5[0][0]              
==================================================================================================
Total params: 1,768,022
Trainable params: 1,768,022
Non-trainable params: 0
__________________________________________________________________________________________________
Epoch 1/1
2019-06-26 10:33:59.950228: I T:\src\github\tensorflow\tensorflow\core\platform\cpu_feature_guard.cc:141] Your CPU supports instructions that this TensorFlow binary was not compiled to use: AVX2
…
